cuda:0
Compose(
    Resize(size=288, interpolation=bicubic, max_size=None, antialias=None)
    CenterCrop(size=(288, 288))
    <function _convert_image_to_rgb at 0x7fcec0ffbb50>
    ToTensor()
    Normalize(mean=(0.48145466, 0.4578275, 0.40821073), std=(0.26862954, 0.26130258, 0.27577711))
)
Data size is 7000
Data size is 1500
Image2shape(
  (clipcap_model): ClipCaptionPrefix(
    (gpt): GPT2LMHeadModel(
      (transformer): GPT2Model(
        (wte): Embedding(50257, 768)
        (wpe): Embedding(1024, 768)
        (drop): Dropout(p=0.1, inplace=False)
        (h): ModuleList(
          (0): GPT2Block(
            (ln_1): LayerNorm((768,), eps=1e-05, elementwise_affine=True)
            (attn): GPT2Attention(
              (c_attn): Conv1D()
              (c_proj): Conv1D()
              (attn_dropout): Dropout(p=0.1, inplace=False)
              (resid_dropout): Dropout(p=0.1, inplace=False)
            )
            (ln_2): LayerNorm((768,), eps=1e-05, elementwise_affine=True)
            (mlp): GPT2MLP(
              (c_fc): Conv1D()
              (c_proj): Conv1D()
              (act): NewGELUActivation()
              (dropout): Dropout(p=0.1, inplace=False)
            )
          )
          (1): GPT2Block(
            (ln_1): LayerNorm((768,), eps=1e-05, elementwise_affine=True)
            (attn): GPT2Attention(
              (c_attn): Conv1D()
              (c_proj): Conv1D()
              (attn_dropout): Dropout(p=0.1, inplace=False)
              (resid_dropout): Dropout(p=0.1, inplace=False)
            )
            (ln_2): LayerNorm((768,), eps=1e-05, elementwise_affine=True)
            (mlp): GPT2MLP(
              (c_fc): Conv1D()
              (c_proj): Conv1D()
              (act): NewGELUActivation()
              (dropout): Dropout(p=0.1, inplace=False)
            )
          )
        )
        (ln_f): LayerNorm((768,), eps=1e-05, elementwise_affine=True)
      )
      (lm_head): Linear(in_features=768, out_features=50257, bias=False)
    )
    (clip_project): TransformerMapper(
      (transformer): Transformer(
        (layers): ModuleList(
          (0): TransformerLayer(
            (norm1): LayerNorm((768,), eps=1e-05, elementwise_affine=True)
            (attn): MultiHeadAttention(
              (to_queries): Linear(in_features=768, out_features=768, bias=False)
              (to_keys_values): Linear(in_features=768, out_features=1536, bias=False)
              (project): Linear(in_features=768, out_features=768, bias=True)
              (dropout): Dropout(p=0.0, inplace=False)
            )
            (norm2): LayerNorm((768,), eps=1e-05, elementwise_affine=True)
            (mlp): MlpTransformer(
              (fc1): Linear(in_features=768, out_features=1536, bias=True)
              (fc2): Linear(in_features=1536, out_features=768, bias=True)
              (dropout): Dropout(p=0.0, inplace=False)
            )
          )
          (1): TransformerLayer(
            (norm1): LayerNorm((768,), eps=1e-05, elementwise_affine=True)
            (attn): MultiHeadAttention(
              (to_queries): Linear(in_features=768, out_features=768, bias=False)
              (to_keys_values): Linear(in_features=768, out_features=1536, bias=False)
              (project): Linear(in_features=768, out_features=768, bias=True)
              (dropout): Dropout(p=0.0, inplace=False)
            )
            (norm2): LayerNorm((768,), eps=1e-05, elementwise_affine=True)
            (mlp): MlpTransformer(
              (fc1): Linear(in_features=768, out_features=1536, bias=True)
              (fc2): Linear(in_features=1536, out_features=768, bias=True)
              (dropout): Dropout(p=0.0, inplace=False)
            )
          )
          (2): TransformerLayer(
            (norm1): LayerNorm((768,), eps=1e-05, elementwise_affine=True)
            (attn): MultiHeadAttention(
              (to_queries): Linear(in_features=768, out_features=768, bias=False)
              (to_keys_values): Linear(in_features=768, out_features=1536, bias=False)
              (project): Linear(in_features=768, out_features=768, bias=True)
              (dropout): Dropout(p=0.0, inplace=False)
            )
            (norm2): LayerNorm((768,), eps=1e-05, elementwise_affine=True)
            (mlp): MlpTransformer(
              (fc1): Linear(in_features=768, out_features=1536, bias=True)
              (fc2): Linear(in_features=1536, out_features=768, bias=True)
              (dropout): Dropout(p=0.0, inplace=False)
            )
          )
          (3): TransformerLayer(
            (norm1): LayerNorm((768,), eps=1e-05, elementwise_affine=True)
            (attn): MultiHeadAttention(
              (to_queries): Linear(in_features=768, out_features=768, bias=False)
              (to_keys_values): Linear(in_features=768, out_features=1536, bias=False)
              (project): Linear(in_features=768, out_features=768, bias=True)
              (dropout): Dropout(p=0.0, inplace=False)
            )
            (norm2): LayerNorm((768,), eps=1e-05, elementwise_affine=True)
            (mlp): MlpTransformer(
              (fc1): Linear(in_features=768, out_features=1536, bias=True)
              (fc2): Linear(in_features=1536, out_features=768, bias=True)
              (dropout): Dropout(p=0.0, inplace=False)
            )
          )
          (4): TransformerLayer(
            (norm1): LayerNorm((768,), eps=1e-05, elementwise_affine=True)
            (attn): MultiHeadAttention(
              (to_queries): Linear(in_features=768, out_features=768, bias=False)
              (to_keys_values): Linear(in_features=768, out_features=1536, bias=False)
              (project): Linear(in_features=768, out_features=768, bias=True)
              (dropout): Dropout(p=0.0, inplace=False)
            )
            (norm2): LayerNorm((768,), eps=1e-05, elementwise_affine=True)
            (mlp): MlpTransformer(
              (fc1): Linear(in_features=768, out_features=1536, bias=True)
              (fc2): Linear(in_features=1536, out_features=768, bias=True)
              (dropout): Dropout(p=0.0, inplace=False)
            )
          )
          (5): TransformerLayer(
            (norm1): LayerNorm((768,), eps=1e-05, elementwise_affine=True)
            (attn): MultiHeadAttention(
              (to_queries): Linear(in_features=768, out_features=768, bias=False)
              (to_keys_values): Linear(in_features=768, out_features=1536, bias=False)
              (project): Linear(in_features=768, out_features=768, bias=True)
              (dropout): Dropout(p=0.0, inplace=False)
            )
            (norm2): LayerNorm((768,), eps=1e-05, elementwise_affine=True)
            (mlp): MlpTransformer(
              (fc1): Linear(in_features=768, out_features=1536, bias=True)
              (fc2): Linear(in_features=1536, out_features=768, bias=True)
              (dropout): Dropout(p=0.0, inplace=False)
            )
          )
        )
      )
      (linear): Linear(in_features=640, out_features=7680, bias=True)
    )
  )
  (clip_model): CLIP(
    (visual): ModifiedResNet(
      (conv1): Conv2d(3, 40, kernel_size=(3, 3), stride=(2, 2), padding=(1, 1), bias=False)
      (bn1): BatchNorm2d(40, eps=1e-05, momentum=0.1, affine=True, track_running_stats=True)
      (relu1): ReLU(inplace=True)
      (conv2): Conv2d(40, 40, kernel_size=(3, 3), stride=(1, 1), padding=(1, 1), bias=False)
      (bn2): BatchNorm2d(40, eps=1e-05, momentum=0.1, affine=True, track_running_stats=True)
      (relu2): ReLU(inplace=True)
      (conv3): Conv2d(40, 80, kernel_size=(3, 3), stride=(1, 1), padding=(1, 1), bias=False)
      (bn3): BatchNorm2d(80, eps=1e-05, momentum=0.1, affine=True, track_running_stats=True)
      (relu3): ReLU(inplace=True)
      (avgpool): AvgPool2d(kernel_size=2, stride=2, padding=0)
      (layer1): Sequential(
        (0): Bottleneck(
          (conv1): Conv2d(80, 80, kernel_size=(1, 1), stride=(1, 1), bias=False)
          (bn1): BatchNorm2d(80, eps=1e-05, momentum=0.1, affine=True, track_running_stats=True)
          (relu1): ReLU(inplace=True)
          (conv2): Conv2d(80, 80, kernel_size=(3, 3), stride=(1, 1), padding=(1, 1), bias=False)
          (bn2): BatchNorm2d(80, eps=1e-05, momentum=0.1, affine=True, track_running_stats=True)
          (relu2): ReLU(inplace=True)
          (avgpool): Identity()
          (conv3): Conv2d(80, 320, kernel_size=(1, 1), stride=(1, 1), bias=False)
          (bn3): BatchNorm2d(320, eps=1e-05, momentum=0.1, affine=True, track_running_stats=True)
          (relu3): ReLU(inplace=True)
          (downsample): Sequential(
            (-1): AvgPool2d(kernel_size=1, stride=1, padding=0)
            (0): Conv2d(80, 320, kernel_size=(1, 1), stride=(1, 1), bias=False)
            (1): BatchNorm2d(320, eps=1e-05, momentum=0.1, affine=True, track_running_stats=True)
          )
        )
        (1): Bottleneck(
          (conv1): Conv2d(320, 80, kernel_size=(1, 1), stride=(1, 1), bias=False)
          (bn1): BatchNorm2d(80, eps=1e-05, momentum=0.1, affine=True, track_running_stats=True)
          (relu1): ReLU(inplace=True)
          (conv2): Conv2d(80, 80, kernel_size=(3, 3), stride=(1, 1), padding=(1, 1), bias=False)
          (bn2): BatchNorm2d(80, eps=1e-05, momentum=0.1, affine=True, track_running_stats=True)
          (relu2): ReLU(inplace=True)
          (avgpool): Identity()
          (conv3): Conv2d(80, 320, kernel_size=(1, 1), stride=(1, 1), bias=False)
          (bn3): BatchNorm2d(320, eps=1e-05, momentum=0.1, affine=True, track_running_stats=True)
          (relu3): ReLU(inplace=True)
        )
        (2): Bottleneck(
          (conv1): Conv2d(320, 80, kernel_size=(1, 1), stride=(1, 1), bias=False)
          (bn1): BatchNorm2d(80, eps=1e-05, momentum=0.1, affine=True, track_running_stats=True)
          (relu1): ReLU(inplace=True)
          (conv2): Conv2d(80, 80, kernel_size=(3, 3), stride=(1, 1), padding=(1, 1), bias=False)
          (bn2): BatchNorm2d(80, eps=1e-05, momentum=0.1, affine=True, track_running_stats=True)
          (relu2): ReLU(inplace=True)
          (avgpool): Identity()
          (conv3): Conv2d(80, 320, kernel_size=(1, 1), stride=(1, 1), bias=False)
          (bn3): BatchNorm2d(320, eps=1e-05, momentum=0.1, affine=True, track_running_stats=True)
          (relu3): ReLU(inplace=True)
        )
        (3): Bottleneck(
          (conv1): Conv2d(320, 80, kernel_size=(1, 1), stride=(1, 1), bias=False)
          (bn1): BatchNorm2d(80, eps=1e-05, momentum=0.1, affine=True, track_running_stats=True)
          (relu1): ReLU(inplace=True)
          (conv2): Conv2d(80, 80, kernel_size=(3, 3), stride=(1, 1), padding=(1, 1), bias=False)
          (bn2): BatchNorm2d(80, eps=1e-05, momentum=0.1, affine=True, track_running_stats=True)
          (relu2): ReLU(inplace=True)
          (avgpool): Identity()
          (conv3): Conv2d(80, 320, kernel_size=(1, 1), stride=(1, 1), bias=False)
          (bn3): BatchNorm2d(320, eps=1e-05, momentum=0.1, affine=True, track_running_stats=True)
          (relu3): ReLU(inplace=True)
        )
      )
      (layer2): Sequential(
        (0): Bottleneck(
          (conv1): Conv2d(320, 160, kernel_size=(1, 1), stride=(1, 1), bias=False)
          (bn1): BatchNorm2d(160, eps=1e-05, momentum=0.1, affine=True, track_running_stats=True)
          (relu1): ReLU(inplace=True)
          (conv2): Conv2d(160, 160, kernel_size=(3, 3), stride=(1, 1), padding=(1, 1), bias=False)
          (bn2): BatchNorm2d(160, eps=1e-05, momentum=0.1, affine=True, track_running_stats=True)
          (relu2): ReLU(inplace=True)
          (avgpool): AvgPool2d(kernel_size=2, stride=2, padding=0)
          (conv3): Conv2d(160, 640, kernel_size=(1, 1), stride=(1, 1), bias=False)
          (bn3): BatchNorm2d(640, eps=1e-05, momentum=0.1, affine=True, track_running_stats=True)
          (relu3): ReLU(inplace=True)
          (downsample): Sequential(
            (-1): AvgPool2d(kernel_size=2, stride=2, padding=0)
            (0): Conv2d(320, 640, kernel_size=(1, 1), stride=(1, 1), bias=False)
            (1): BatchNorm2d(640, eps=1e-05, momentum=0.1, affine=True, track_running_stats=True)
          )
        )
        (1): Bottleneck(
          (conv1): Conv2d(640, 160, kernel_size=(1, 1), stride=(1, 1), bias=False)
          (bn1): BatchNorm2d(160, eps=1e-05, momentum=0.1, affine=True, track_running_stats=True)
          (relu1): ReLU(inplace=True)
          (conv2): Conv2d(160, 160, kernel_size=(3, 3), stride=(1, 1), padding=(1, 1), bias=False)
          (bn2): BatchNorm2d(160, eps=1e-05, momentum=0.1, affine=True, track_running_stats=True)
          (relu2): ReLU(inplace=True)
          (avgpool): Identity()
          (conv3): Conv2d(160, 640, kernel_size=(1, 1), stride=(1, 1), bias=False)
          (bn3): BatchNorm2d(640, eps=1e-05, momentum=0.1, affine=True, track_running_stats=True)
          (relu3): ReLU(inplace=True)
        )
        (2): Bottleneck(
          (conv1): Conv2d(640, 160, kernel_size=(1, 1), stride=(1, 1), bias=False)
          (bn1): BatchNorm2d(160, eps=1e-05, momentum=0.1, affine=True, track_running_stats=True)
          (relu1): ReLU(inplace=True)
          (conv2): Conv2d(160, 160, kernel_size=(3, 3), stride=(1, 1), padding=(1, 1), bias=False)
          (bn2): BatchNorm2d(160, eps=1e-05, momentum=0.1, affine=True, track_running_stats=True)
          (relu2): ReLU(inplace=True)
          (avgpool): Identity()
          (conv3): Conv2d(160, 640, kernel_size=(1, 1), stride=(1, 1), bias=False)
          (bn3): BatchNorm2d(640, eps=1e-05, momentum=0.1, affine=True, track_running_stats=True)
          (relu3): ReLU(inplace=True)
        )
        (3): Bottleneck(
          (conv1): Conv2d(640, 160, kernel_size=(1, 1), stride=(1, 1), bias=False)
          (bn1): BatchNorm2d(160, eps=1e-05, momentum=0.1, affine=True, track_running_stats=True)
          (relu1): ReLU(inplace=True)
          (conv2): Conv2d(160, 160, kernel_size=(3, 3), stride=(1, 1), padding=(1, 1), bias=False)
          (bn2): BatchNorm2d(160, eps=1e-05, momentum=0.1, affine=True, track_running_stats=True)
          (relu2): ReLU(inplace=True)
          (avgpool): Identity()
          (conv3): Conv2d(160, 640, kernel_size=(1, 1), stride=(1, 1), bias=False)
          (bn3): BatchNorm2d(640, eps=1e-05, momentum=0.1, affine=True, track_running_stats=True)
          (relu3): ReLU(inplace=True)
        )
        (4): Bottleneck(
          (conv1): Conv2d(640, 160, kernel_size=(1, 1), stride=(1, 1), bias=False)
          (bn1): BatchNorm2d(160, eps=1e-05, momentum=0.1, affine=True, track_running_stats=True)
          (relu1): ReLU(inplace=True)
          (conv2): Conv2d(160, 160, kernel_size=(3, 3), stride=(1, 1), padding=(1, 1), bias=False)
          (bn2): BatchNorm2d(160, eps=1e-05, momentum=0.1, affine=True, track_running_stats=True)
          (relu2): ReLU(inplace=True)
          (avgpool): Identity()
          (conv3): Conv2d(160, 640, kernel_size=(1, 1), stride=(1, 1), bias=False)
          (bn3): BatchNorm2d(640, eps=1e-05, momentum=0.1, affine=True, track_running_stats=True)
          (relu3): ReLU(inplace=True)
        )
        (5): Bottleneck(
          (conv1): Conv2d(640, 160, kernel_size=(1, 1), stride=(1, 1), bias=False)
          (bn1): BatchNorm2d(160, eps=1e-05, momentum=0.1, affine=True, track_running_stats=True)
          (relu1): ReLU(inplace=True)
          (conv2): Conv2d(160, 160, kernel_size=(3, 3), stride=(1, 1), padding=(1, 1), bias=False)
          (bn2): BatchNorm2d(160, eps=1e-05, momentum=0.1, affine=True, track_running_stats=True)
          (relu2): ReLU(inplace=True)
          (avgpool): Identity()
          (conv3): Conv2d(160, 640, kernel_size=(1, 1), stride=(1, 1), bias=False)
          (bn3): BatchNorm2d(640, eps=1e-05, momentum=0.1, affine=True, track_running_stats=True)
          (relu3): ReLU(inplace=True)
        )
      )
      (layer3): Sequential(
        (0): Bottleneck(
          (conv1): Conv2d(640, 320, kernel_size=(1, 1), stride=(1, 1), bias=False)
          (bn1): BatchNorm2d(320, eps=1e-05, momentum=0.1, affine=True, track_running_stats=True)
          (relu1): ReLU(inplace=True)
          (conv2): Conv2d(320, 320, kernel_size=(3, 3), stride=(1, 1), padding=(1, 1), bias=False)
          (bn2): BatchNorm2d(320, eps=1e-05, momentum=0.1, affine=True, track_running_stats=True)
          (relu2): ReLU(inplace=True)
          (avgpool): AvgPool2d(kernel_size=2, stride=2, padding=0)
          (conv3): Conv2d(320, 1280, kernel_size=(1, 1), stride=(1, 1), bias=False)
          (bn3): BatchNorm2d(1280, eps=1e-05, momentum=0.1, affine=True, track_running_stats=True)
          (relu3): ReLU(inplace=True)
          (downsample): Sequential(
            (-1): AvgPool2d(kernel_size=2, stride=2, padding=0)
            (0): Conv2d(640, 1280, kernel_size=(1, 1), stride=(1, 1), bias=False)
            (1): BatchNorm2d(1280, eps=1e-05, momentum=0.1, affine=True, track_running_stats=True)
          )
        )
        (1): Bottleneck(
          (conv1): Conv2d(1280, 320, kernel_size=(1, 1), stride=(1, 1), bias=False)
          (bn1): BatchNorm2d(320, eps=1e-05, momentum=0.1, affine=True, track_running_stats=True)
          (relu1): ReLU(inplace=True)
          (conv2): Conv2d(320, 320, kernel_size=(3, 3), stride=(1, 1), padding=(1, 1), bias=False)
          (bn2): BatchNorm2d(320, eps=1e-05, momentum=0.1, affine=True, track_running_stats=True)
          (relu2): ReLU(inplace=True)
          (avgpool): Identity()
          (conv3): Conv2d(320, 1280, kernel_size=(1, 1), stride=(1, 1), bias=False)
          (bn3): BatchNorm2d(1280, eps=1e-05, momentum=0.1, affine=True, track_running_stats=True)
          (relu3): ReLU(inplace=True)
        )
        (2): Bottleneck(
          (conv1): Conv2d(1280, 320, kernel_size=(1, 1), stride=(1, 1), bias=False)
          (bn1): BatchNorm2d(320, eps=1e-05, momentum=0.1, affine=True, track_running_stats=True)
          (relu1): ReLU(inplace=True)
          (conv2): Conv2d(320, 320, kernel_size=(3, 3), stride=(1, 1), padding=(1, 1), bias=False)
          (bn2): BatchNorm2d(320, eps=1e-05, momentum=0.1, affine=True, track_running_stats=True)
          (relu2): ReLU(inplace=True)
          (avgpool): Identity()
          (conv3): Conv2d(320, 1280, kernel_size=(1, 1), stride=(1, 1), bias=False)
          (bn3): BatchNorm2d(1280, eps=1e-05, momentum=0.1, affine=True, track_running_stats=True)
          (relu3): ReLU(inplace=True)
        )
        (3): Bottleneck(
          (conv1): Conv2d(1280, 320, kernel_size=(1, 1), stride=(1, 1), bias=False)
          (bn1): BatchNorm2d(320, eps=1e-05, momentum=0.1, affine=True, track_running_stats=True)
          (relu1): ReLU(inplace=True)
          (conv2): Conv2d(320, 320, kernel_size=(3, 3), stride=(1, 1), padding=(1, 1), bias=False)
          (bn2): BatchNorm2d(320, eps=1e-05, momentum=0.1, affine=True, track_running_stats=True)
          (relu2): ReLU(inplace=True)
          (avgpool): Identity()
          (conv3): Conv2d(320, 1280, kernel_size=(1, 1), stride=(1, 1), bias=False)
          (bn3): BatchNorm2d(1280, eps=1e-05, momentum=0.1, affine=True, track_running_stats=True)
          (relu3): ReLU(inplace=True)
        )
        (4): Bottleneck(
          (conv1): Conv2d(1280, 320, kernel_size=(1, 1), stride=(1, 1), bias=False)
          (bn1): BatchNorm2d(320, eps=1e-05, momentum=0.1, affine=True, track_running_stats=True)
          (relu1): ReLU(inplace=True)
          (conv2): Conv2d(320, 320, kernel_size=(3, 3), stride=(1, 1), padding=(1, 1), bias=False)
          (bn2): BatchNorm2d(320, eps=1e-05, momentum=0.1, affine=True, track_running_stats=True)
          (relu2): ReLU(inplace=True)
          (avgpool): Identity()
          (conv3): Conv2d(320, 1280, kernel_size=(1, 1), stride=(1, 1), bias=False)
          (bn3): BatchNorm2d(1280, eps=1e-05, momentum=0.1, affine=True, track_running_stats=True)
          (relu3): ReLU(inplace=True)
        )
        (5): Bottleneck(
          (conv1): Conv2d(1280, 320, kernel_size=(1, 1), stride=(1, 1), bias=False)
          (bn1): BatchNorm2d(320, eps=1e-05, momentum=0.1, affine=True, track_running_stats=True)
          (relu1): ReLU(inplace=True)
          (conv2): Conv2d(320, 320, kernel_size=(3, 3), stride=(1, 1), padding=(1, 1), bias=False)
          (bn2): BatchNorm2d(320, eps=1e-05, momentum=0.1, affine=True, track_running_stats=True)
          (relu2): ReLU(inplace=True)
          (avgpool): Identity()
          (conv3): Conv2d(320, 1280, kernel_size=(1, 1), stride=(1, 1), bias=False)
          (bn3): BatchNorm2d(1280, eps=1e-05, momentum=0.1, affine=True, track_running_stats=True)
          (relu3): ReLU(inplace=True)
        )
        (6): Bottleneck(
          (conv1): Conv2d(1280, 320, kernel_size=(1, 1), stride=(1, 1), bias=False)
          (bn1): BatchNorm2d(320, eps=1e-05, momentum=0.1, affine=True, track_running_stats=True)
          (relu1): ReLU(inplace=True)
          (conv2): Conv2d(320, 320, kernel_size=(3, 3), stride=(1, 1), padding=(1, 1), bias=False)
          (bn2): BatchNorm2d(320, eps=1e-05, momentum=0.1, affine=True, track_running_stats=True)
          (relu2): ReLU(inplace=True)
          (avgpool): Identity()
          (conv3): Conv2d(320, 1280, kernel_size=(1, 1), stride=(1, 1), bias=False)
          (bn3): BatchNorm2d(1280, eps=1e-05, momentum=0.1, affine=True, track_running_stats=True)
          (relu3): ReLU(inplace=True)
        )
        (7): Bottleneck(
          (conv1): Conv2d(1280, 320, kernel_size=(1, 1), stride=(1, 1), bias=False)
          (bn1): BatchNorm2d(320, eps=1e-05, momentum=0.1, affine=True, track_running_stats=True)
          (relu1): ReLU(inplace=True)
          (conv2): Conv2d(320, 320, kernel_size=(3, 3), stride=(1, 1), padding=(1, 1), bias=False)
          (bn2): BatchNorm2d(320, eps=1e-05, momentum=0.1, affine=True, track_running_stats=True)
          (relu2): ReLU(inplace=True)
          (avgpool): Identity()
          (conv3): Conv2d(320, 1280, kernel_size=(1, 1), stride=(1, 1), bias=False)
          (bn3): BatchNorm2d(1280, eps=1e-05, momentum=0.1, affine=True, track_running_stats=True)
          (relu3): ReLU(inplace=True)
        )
        (8): Bottleneck(
          (conv1): Conv2d(1280, 320, kernel_size=(1, 1), stride=(1, 1), bias=False)
          (bn1): BatchNorm2d(320, eps=1e-05, momentum=0.1, affine=True, track_running_stats=True)
          (relu1): ReLU(inplace=True)
          (conv2): Conv2d(320, 320, kernel_size=(3, 3), stride=(1, 1), padding=(1, 1), bias=False)
          (bn2): BatchNorm2d(320, eps=1e-05, momentum=0.1, affine=True, track_running_stats=True)
          (relu2): ReLU(inplace=True)
          (avgpool): Identity()
          (conv3): Conv2d(320, 1280, kernel_size=(1, 1), stride=(1, 1), bias=False)
          (bn3): BatchNorm2d(1280, eps=1e-05, momentum=0.1, affine=True, track_running_stats=True)
          (relu3): ReLU(inplace=True)
        )
        (9): Bottleneck(
          (conv1): Conv2d(1280, 320, kernel_size=(1, 1), stride=(1, 1), bias=False)
          (bn1): BatchNorm2d(320, eps=1e-05, momentum=0.1, affine=True, track_running_stats=True)
          (relu1): ReLU(inplace=True)
          (conv2): Conv2d(320, 320, kernel_size=(3, 3), stride=(1, 1), padding=(1, 1), bias=False)
          (bn2): BatchNorm2d(320, eps=1e-05, momentum=0.1, affine=True, track_running_stats=True)
          (relu2): ReLU(inplace=True)
          (avgpool): Identity()
          (conv3): Conv2d(320, 1280, kernel_size=(1, 1), stride=(1, 1), bias=False)
          (bn3): BatchNorm2d(1280, eps=1e-05, momentum=0.1, affine=True, track_running_stats=True)
          (relu3): ReLU(inplace=True)
        )
      )
      (layer4): Sequential(
        (0): Bottleneck(
          (conv1): Conv2d(1280, 640, kernel_size=(1, 1), stride=(1, 1), bias=False)
          (bn1): BatchNorm2d(640, eps=1e-05, momentum=0.1, affine=True, track_running_stats=True)
          (relu1): ReLU(inplace=True)
          (conv2): Conv2d(640, 640, kernel_size=(3, 3), stride=(1, 1), padding=(1, 1), bias=False)
          (bn2): BatchNorm2d(640, eps=1e-05, momentum=0.1, affine=True, track_running_stats=True)
          (relu2): ReLU(inplace=True)
          (avgpool): AvgPool2d(kernel_size=2, stride=2, padding=0)
          (conv3): Conv2d(640, 2560, kernel_size=(1, 1), stride=(1, 1), bias=False)
          (bn3): BatchNorm2d(2560, eps=1e-05, momentum=0.1, affine=True, track_running_stats=True)
          (relu3): ReLU(inplace=True)
          (downsample): Sequential(
            (-1): AvgPool2d(kernel_size=2, stride=2, padding=0)
            (0): Conv2d(1280, 2560, kernel_size=(1, 1), stride=(1, 1), bias=False)
            (1): BatchNorm2d(2560, eps=1e-05, momentum=0.1, affine=True, track_running_stats=True)
          )
        )
        (1): Bottleneck(
          (conv1): Conv2d(2560, 640, kernel_size=(1, 1), stride=(1, 1), bias=False)
          (bn1): BatchNorm2d(640, eps=1e-05, momentum=0.1, affine=True, track_running_stats=True)
          (relu1): ReLU(inplace=True)
          (conv2): Conv2d(640, 640, kernel_size=(3, 3), stride=(1, 1), padding=(1, 1), bias=False)
          (bn2): BatchNorm2d(640, eps=1e-05, momentum=0.1, affine=True, track_running_stats=True)
          (relu2): ReLU(inplace=True)
          (avgpool): Identity()
          (conv3): Conv2d(640, 2560, kernel_size=(1, 1), stride=(1, 1), bias=False)
          (bn3): BatchNorm2d(2560, eps=1e-05, momentum=0.1, affine=True, track_running_stats=True)
          (relu3): ReLU(inplace=True)
        )
        (2): Bottleneck(
          (conv1): Conv2d(2560, 640, kernel_size=(1, 1), stride=(1, 1), bias=False)
          (bn1): BatchNorm2d(640, eps=1e-05, momentum=0.1, affine=True, track_running_stats=True)
          (relu1): ReLU(inplace=True)
          (conv2): Conv2d(640, 640, kernel_size=(3, 3), stride=(1, 1), padding=(1, 1), bias=False)
          (bn2): BatchNorm2d(640, eps=1e-05, momentum=0.1, affine=True, track_running_stats=True)
          (relu2): ReLU(inplace=True)
          (avgpool): Identity()
          (conv3): Conv2d(640, 2560, kernel_size=(1, 1), stride=(1, 1), bias=False)
          (bn3): BatchNorm2d(2560, eps=1e-05, momentum=0.1, affine=True, track_running_stats=True)
          (relu3): ReLU(inplace=True)
        )
        (3): Bottleneck(
          (conv1): Conv2d(2560, 640, kernel_size=(1, 1), stride=(1, 1), bias=False)
          (bn1): BatchNorm2d(640, eps=1e-05, momentum=0.1, affine=True, track_running_stats=True)
          (relu1): ReLU(inplace=True)
          (conv2): Conv2d(640, 640, kernel_size=(3, 3), stride=(1, 1), padding=(1, 1), bias=False)
          (bn2): BatchNorm2d(640, eps=1e-05, momentum=0.1, affine=True, track_running_stats=True)
          (relu2): ReLU(inplace=True)
          (avgpool): Identity()
          (conv3): Conv2d(640, 2560, kernel_size=(1, 1), stride=(1, 1), bias=False)
          (bn3): BatchNorm2d(2560, eps=1e-05, momentum=0.1, affine=True, track_running_stats=True)
          (relu3): ReLU(inplace=True)
        )
        (4): Bottleneck(
          (conv1): Conv2d(2560, 640, kernel_size=(1, 1), stride=(1, 1), bias=False)
          (bn1): BatchNorm2d(640, eps=1e-05, momentum=0.1, affine=True, track_running_stats=True)
          (relu1): ReLU(inplace=True)
          (conv2): Conv2d(640, 640, kernel_size=(3, 3), stride=(1, 1), padding=(1, 1), bias=False)
          (bn2): BatchNorm2d(640, eps=1e-05, momentum=0.1, affine=True, track_running_stats=True)
          (relu2): ReLU(inplace=True)
          (avgpool): Identity()
          (conv3): Conv2d(640, 2560, kernel_size=(1, 1), stride=(1, 1), bias=False)
          (bn3): BatchNorm2d(2560, eps=1e-05, momentum=0.1, affine=True, track_running_stats=True)
          (relu3): ReLU(inplace=True)
        )
        (5): Bottleneck(
          (conv1): Conv2d(2560, 640, kernel_size=(1, 1), stride=(1, 1), bias=False)
          (bn1): BatchNorm2d(640, eps=1e-05, momentum=0.1, affine=True, track_running_stats=True)
          (relu1): ReLU(inplace=True)
          (conv2): Conv2d(640, 640, kernel_size=(3, 3), stride=(1, 1), padding=(1, 1), bias=False)
          (bn2): BatchNorm2d(640, eps=1e-05, momentum=0.1, affine=True, track_running_stats=True)
          (relu2): ReLU(inplace=True)
          (avgpool): Identity()
          (conv3): Conv2d(640, 2560, kernel_size=(1, 1), stride=(1, 1), bias=False)
          (bn3): BatchNorm2d(2560, eps=1e-05, momentum=0.1, affine=True, track_running_stats=True)
          (relu3): ReLU(inplace=True)
        )
      )
      (attnpool): AttentionPool2d(
        (k_proj): Linear(in_features=2560, out_features=2560, bias=True)
        (q_proj): Linear(in_features=2560, out_features=2560, bias=True)
        (v_proj): Linear(in_features=2560, out_features=2560, bias=True)
        (c_proj): Linear(in_features=2560, out_features=640, bias=True)
      )
    )
    (transformer): Transformer(
      (resblocks): Sequential(
        (0): ResidualAttentionBlock(
          (attn): MultiheadAttention(
            (out_proj): NonDynamicallyQuantizableLinear(in_features=640, out_features=640, bias=True)
          )
          (ln_1): LayerNorm((640,), eps=1e-05, elementwise_affine=True)
          (mlp): Sequential(
            (c_fc): Linear(in_features=640, out_features=2560, bias=True)
            (gelu): QuickGELU()
            (c_proj): Linear(in_features=2560, out_features=640, bias=True)
          )
          (ln_2): LayerNorm((640,), eps=1e-05, elementwise_affine=True)
        )
        (1): ResidualAttentionBlock(
          (attn): MultiheadAttention(
            (out_proj): NonDynamicallyQuantizableLinear(in_features=640, out_features=640, bias=True)
          )
          (ln_1): LayerNorm((640,), eps=1e-05, elementwise_affine=True)
          (mlp): Sequential(
            (c_fc): Linear(in_features=640, out_features=2560, bias=True)
            (gelu): QuickGELU()
            (c_proj): Linear(in_features=2560, out_features=640, bias=True)
          )
          (ln_2): LayerNorm((640,), eps=1e-05, elementwise_affine=True)
        )
        (2): ResidualAttentionBlock(
          (attn): MultiheadAttention(
            (out_proj): NonDynamicallyQuantizableLinear(in_features=640, out_features=640, bias=True)
          )
          (ln_1): LayerNorm((640,), eps=1e-05, elementwise_affine=True)
          (mlp): Sequential(
            (c_fc): Linear(in_features=640, out_features=2560, bias=True)
            (gelu): QuickGELU()
            (c_proj): Linear(in_features=2560, out_features=640, bias=True)
          )
          (ln_2): LayerNorm((640,), eps=1e-05, elementwise_affine=True)
        )
        (3): ResidualAttentionBlock(
          (attn): MultiheadAttention(
            (out_proj): NonDynamicallyQuantizableLinear(in_features=640, out_features=640, bias=True)
          )
          (ln_1): LayerNorm((640,), eps=1e-05, elementwise_affine=True)
          (mlp): Sequential(
            (c_fc): Linear(in_features=640, out_features=2560, bias=True)
            (gelu): QuickGELU()
            (c_proj): Linear(in_features=2560, out_features=640, bias=True)
          )
          (ln_2): LayerNorm((640,), eps=1e-05, elementwise_affine=True)
        )
        (4): ResidualAttentionBlock(
          (attn): MultiheadAttention(
            (out_proj): NonDynamicallyQuantizableLinear(in_features=640, out_features=640, bias=True)
          )
          (ln_1): LayerNorm((640,), eps=1e-05, elementwise_affine=True)
          (mlp): Sequential(
            (c_fc): Linear(in_features=640, out_features=2560, bias=True)
            (gelu): QuickGELU()
            (c_proj): Linear(in_features=2560, out_features=640, bias=True)
          )
          (ln_2): LayerNorm((640,), eps=1e-05, elementwise_affine=True)
        )
        (5): ResidualAttentionBlock(
          (attn): MultiheadAttention(
            (out_proj): NonDynamicallyQuantizableLinear(in_features=640, out_features=640, bias=True)
          )
          (ln_1): LayerNorm((640,), eps=1e-05, elementwise_affine=True)
          (mlp): Sequential(
            (c_fc): Linear(in_features=640, out_features=2560, bias=True)
            (gelu): QuickGELU()
            (c_proj): Linear(in_features=2560, out_features=640, bias=True)
          )
          (ln_2): LayerNorm((640,), eps=1e-05, elementwise_affine=True)
        )
        (6): ResidualAttentionBlock(
          (attn): MultiheadAttention(
            (out_proj): NonDynamicallyQuantizableLinear(in_features=640, out_features=640, bias=True)
          )
          (ln_1): LayerNorm((640,), eps=1e-05, elementwise_affine=True)
          (mlp): Sequential(
            (c_fc): Linear(in_features=640, out_features=2560, bias=True)
            (gelu): QuickGELU()
            (c_proj): Linear(in_features=2560, out_features=640, bias=True)
          )
          (ln_2): LayerNorm((640,), eps=1e-05, elementwise_affine=True)
        )
        (7): ResidualAttentionBlock(
          (attn): MultiheadAttention(
            (out_proj): NonDynamicallyQuantizableLinear(in_features=640, out_features=640, bias=True)
          )
          (ln_1): LayerNorm((640,), eps=1e-05, elementwise_affine=True)
          (mlp): Sequential(
            (c_fc): Linear(in_features=640, out_features=2560, bias=True)
            (gelu): QuickGELU()
            (c_proj): Linear(in_features=2560, out_features=640, bias=True)
          )
          (ln_2): LayerNorm((640,), eps=1e-05, elementwise_affine=True)
        )
        (8): ResidualAttentionBlock(
          (attn): MultiheadAttention(
            (out_proj): NonDynamicallyQuantizableLinear(in_features=640, out_features=640, bias=True)
          )
          (ln_1): LayerNorm((640,), eps=1e-05, elementwise_affine=True)
          (mlp): Sequential(
            (c_fc): Linear(in_features=640, out_features=2560, bias=True)
            (gelu): QuickGELU()
            (c_proj): Linear(in_features=2560, out_features=640, bias=True)
          )
          (ln_2): LayerNorm((640,), eps=1e-05, elementwise_affine=True)
        )
        (9): ResidualAttentionBlock(
          (attn): MultiheadAttention(
            (out_proj): NonDynamicallyQuantizableLinear(in_features=640, out_features=640, bias=True)
          )
          (ln_1): LayerNorm((640,), eps=1e-05, elementwise_affine=True)
          (mlp): Sequential(
            (c_fc): Linear(in_features=640, out_features=2560, bias=True)
            (gelu): QuickGELU()
            (c_proj): Linear(in_features=2560, out_features=640, bias=True)
          )
          (ln_2): LayerNorm((640,), eps=1e-05, elementwise_affine=True)
        )
        (10): ResidualAttentionBlock(
          (attn): MultiheadAttention(
            (out_proj): NonDynamicallyQuantizableLinear(in_features=640, out_features=640, bias=True)
          )
          (ln_1): LayerNorm((640,), eps=1e-05, elementwise_affine=True)
          (mlp): Sequential(
            (c_fc): Linear(in_features=640, out_features=2560, bias=True)
            (gelu): QuickGELU()
            (c_proj): Linear(in_features=2560, out_features=640, bias=True)
          )
          (ln_2): LayerNorm((640,), eps=1e-05, elementwise_affine=True)
        )
        (11): ResidualAttentionBlock(
          (attn): MultiheadAttention(
            (out_proj): NonDynamicallyQuantizableLinear(in_features=640, out_features=640, bias=True)
          )
          (ln_1): LayerNorm((640,), eps=1e-05, elementwise_affine=True)
          (mlp): Sequential(
            (c_fc): Linear(in_features=640, out_features=2560, bias=True)
            (gelu): QuickGELU()
            (c_proj): Linear(in_features=2560, out_features=640, bias=True)
          )
          (ln_2): LayerNorm((640,), eps=1e-05, elementwise_affine=True)
        )
      )
    )
    (token_embedding): Embedding(49408, 640)
    (ln_final): LayerNorm((640,), eps=1e-05, elementwise_affine=True)
  )
)
/home/guest/gihwan/AI_software/term/runs/Image2shape/20231213000119537
2023-12-13 00:01:19.540392: I tensorflow/core/platform/cpu_feature_guard.cc:193] This TensorFlow binary is optimized with oneAPI Deep Neural Network Library (oneDNN) to use the following CPU instructions in performance-critical operations:  SSE4.1 SSE4.2 AVX AVX2 FMA
To enable them in other operations, rebuild TensorFlow with the appropriate compiler flags.
…
